.getting_data_for_AI/car_price_model.pth (torch, 773202 bytes, 37 tensors)

fc1.weight f4 [512, 20]
00000000: b6df 653e c434 1cbe 14d3 20be 67e9 4dbe
00000010: 1051 bb3d 204d 9b3d d336 a53d 4184 71be
00000020: fa64 51bd 1910 533e a5d3 533e 12d0 1c3d
00000030: 9270 f5bd 74dd fe3d 6613 44be 3ec0 5f3e
00000040: 8704 07be 6c3f bcbd 66a4 b8bc e069 533e
00000050: 909c 43be 02c5 153e 5f1c 41bc 3cfe 8d3d
00000060: f451 58be a9fa 2fbe 8ee9 3a3e 2946 563c
00000070: 36be 1b3d f48e 0c3e 4aa2 2a3e 84ba 903d
00000080: 34e4 a0bd 32e5 46be 079e 573e 6754 50be
00000090: 1183 45be e23e 87bd edce a13d 77c8 d1bd
000000a0: b651 13bc 6cde 253e d786 29ba d17d 163e
000000b0: dbf1 16be bf88 cabb 7ccd fd3d 8908 2e3e
000000c0: e86f 953d 6e5d 19be d541 9a3d 1d76 2b3e
000000d0: 1cd5 b3bd 7bd3 31be feee dd3d 28ae 1f3e
000000e0: 6f9e 0ebe 243f 14be 053d c1bd 6a09 1b3e
000000f0: 7d15 083e a04c e9bd 5ceb 6f3e 9229 9f3d
00000100: 8877 bbbd 63b9 363e 49fd 0c3e 0052 223e
00000110: bda5 c23c 0cba ea3d f915 bbbd 6d5d 34bc
00000120: bde2 66be f662 093e 90c5 523d 5fa6 c2bd
00000130: 03ee 47be 027e a2bd be84 603e a977 52bc
00000140: 9985 3ebd 38af a43d 1f1e d2bd 1125 2bbe
00000150: 066b 9e3d ec99 f43d 0ca6 ea3d 69e8 c23d
00000160: da5e 5dbe 6126 e83d 9656 15be 3714 98bd
00000170: b13f fa3d 1d9a 6d3e 7ee5 37be 1552 0d3e
00000180: 43b9 013e 8f44 c13d 9e04 11be 198c 36bc
00000190: 2e70 ea3d b157 193e dc30 95bb 605b b63c
000001a0: 675d 3f3e 06fc 7fbd 661e cebd 6378 a9bd
000001b0: 98d5 d23b fc3f e7bc 7119 01bd 7eff c6bd
000001c0: eced 493e d0d8 41be 3640 b53b b534 aebd
000001d0: a03e 253e b167 31be 7662 1d3e a399 c63d
000001e0: bc56 06be f147 493e 4740 debc 7f84 ecbb
000001f0: 7c53 5d3e 7f95 0e3d aaf4 55be 6f92 363e
00000200: 7a8c 1a3e dfd5 ec3d 9810 57be ff40 adbd
00000210: 01f7 c9bd 14d1 d3bc 9c33 45be 9e6d 35be
00000220: 57e3 37be 3912 973b e7d1 22bd 4e5c 9a3d
00000230: 43fb 94bd f78e f33d 610d 43be 41dc 16be
00000240: 2165 363c dbb0 38be 0d0f 35be 7fa4 97bc
00000250: e40a ce3d 2d1e 67be ff4b 8f3c 8045 3abc
00000260: 7824 1fbd 1ab3 25be 7f4a c7bc 4f22 2bbe
00000270: a605 5cbd 0bc9 66be cc7c 343e a4f0 16be
00000280: abe9 66be 4285 80bb a6a8 183e 0056 0cbe
00000290: 9ea2 e83d dceb 0238 6d4d 87bc 1664 7bbe
000002a0: 0839 16be c179 ef3c e1e7 33be fb00 10be
000002b0: b0df 43be 04e2 c33d 6b41 7bbd cd14 e0bd
000002c0: c5c1 bd3c c042 4fbe 63f0 ddbd a342 b13d
000002d0: cf1f 39be 0dac 33be 45ee 0dbe fdb1 61be
000002e0: 448c 423e d3ab 3f3e 38db a2bd 321d eebd
000002f0: fc40 b8bd b4aa 69bd a7e7 64be b155 053e
00000300: 9326 7a3d 93b2 08be 9b7a 35be 1cd2 293e
00000310: 7cc5 3dbe f329 35be a5aa 0c3e c963 043d
00000320: 8ed6 433e a1c4 0f3e 8140 ce3d 7ad8 2e3e
00000330: abe7 673c cd7f 3cbe c811 54be 188a 1e3e
00000340: d5be 443d ba00 ed3c c331 7c3d 43e5 34bc
00000350: 8770 43bd 366b 053e 6466 f4bd 67c0 cabd
00000360: 9d67 a13d 04d4 213e 5e67 07bd ecda c2bd
00000370: 3807 bfbb 10d1 363e 3a16 a53d 8491 28be
00000380: 1ce6 573e 645c 953c a08e fb3d 0abe 083e
00000390: b3a1 3f3e b08c 483e f474 99bd 248b 893b
000003a0: 5c4e 703d 3b18 333e 09fd 44be 9329 39be
000003b0: 07a9 c5bd 7c63 acbd 97fe 4bbe 7164 293e
000003c0: ca6b d1bd 02e9 1bba 809f 183d 4207 a3bd
000003d0: 71d4 e73c 27db 473e 3099 743e e2d8 bdbc
000003e0: a4ed b4bd 2144 873c 15a3 cfbb d11e 2e3e
000003f0: 15e8 67bd ce04 0e3e 3451 103e 28c0 493c
0.2244862 -0.15254503 -0.1570552 -0.20108567 0.09146321 0.0758307 0.080670975 -0.23585607
-0.05112169 0.2061161 0.20686205 0.03828437 -0.11984362 0.124445826 -0.19148025 0.21850678
-0.13185321 -0.09191784 -0.022539329 0.20645857 -0.19102693 0.14625934 -0.011786549 0.06933257
-0.21125013 -0.17185463 0.18253157 0.013078251 0.038023196 0.13726407 0.16663471 0.07066825
-0.07856026 -0.19423369 0.21056376 -0.20344697 -0.19288279 -0.06603791 0.07900796 -0.10243314
-0.008991649 0.16198128 -0.0006466931 0.14696433 -0.14740698 -0.006180852 0.12392709 0.16995443
0.07296735 -0.14977047 0.07532088 0.16744275 -0.08780882 -0.1736583 0.108366 0.15593779
-0.13927625 -0.14477211 -0.09435467 0.1514031 0.13289447 -0.11391568 0.23429626 0.07771601
-0.09153658 0.17844157 0.13768496 0.15851593 0.02376067 0.11461267 -0.0913505 -0.011008603
-0.22547431 0.13416657 0.05145794 -0.09504389 -0.19524388 -0.0793419 0.21925637 -0.012845912
-0.046514127 0.08041233 -0.102596514 -0.16713358 0.07735257 0.11943421 0.11457452 0.09516985
-0.21618214 0.11335445 -0.14583811 -0.07425731 0.122191794 0.23203321 -0.17958638 0.13800843
0.12668328 0.09436905 -0.14161918 -0.0111418 0.11447178 0.14974858 -0.0045529436 0.022260368
0.18687974 -0.062496208 -0.10064392 -0.08274915 0.0064341538 -0.028228752 -0.031518403 -0.097167
0.19719666 -0.18930364 0.005531336 -0.08506147 0.16137171 -0.17324711 0.15369591 0.09697273
-0.13119024 0.1965635 -0.02713026 -0.007217943 0.21613878 0.03481054 -0.20894113 0.17829297
0.1509265 0.1156423 -0.21002424 -0.08459663 -0.098615654 -0.025856532 -0.19257969 -0.17717597
-0.17957817 0.0046103266 -0.03975096 0.07537137 -0.07274487 0.11892503 -0.19048072 -0.14732458
0.011132509 -0.18036215 -0.17681523 -0.018511055 0.10060671 -0.22570105 0.017492292 -0.011369109
-0.03885314 -0.16181603 -0.024327515 -0.16712306 -0.053716324 -0.2253763 0.17625731 -0.14740235
-0.22550075 -0.0039221356 0.14908084 -0.13704681 0.11359142 3.1214076e-05 -0.016516412 -0.24549899
-0.14670193 0.029232861 -0.17568924 -0.14062874 -0.19128299 0.095645934 -0.061341684 -0.109414674
0.023163686 -0.20240307 -0.10836866 0.08655288 -0.1807854 -0.17546101 -0.13860424 -0.22040553
0.1899882 0.1871789 -0.07951969 -0.11626662 -0.0899677 -0.05704756 -0.22353993 0.1302097
0.061071943 -0.1334937 -0.17722552 0.16584057 -0.18532366 -0.17691784 0.1373697 0.032321725
0.19124815 0.14039852 0.10070897 0.17074767 0.014154355 -0.18408127 -0.20709908 0.15482366
0.048033554 0.02893101 0.061570894 -0.011040988 -0.047714736 0.13029179 -0.11933592 -0.09899979
0.07881091 0.15803534 -0.033057563 -0.09514412 -0.005829718 0.17853189 0.0806088 -0.1646176
0.21083874 0.018232532 0.12283063 0.13353744 0.18714027 0.19584918 -0.0749301 0.004197495
0.05866848 0.17489712 -0.1923715 -0.18082266 -0.0965138 -0.08417413 -0.19921337 0.16542222
-0.10225637 -0.00059475016 0.037261486 -0.07960369 0.028299542 0.19517194 0.23886561 -0.023174707
-0.08834389 0.016511979 -0.0063365796 0.17003943 -0.056617815 0.1386902 0.14093477 0.01231388

fc1.bias f4 [512]
00000000: 2766 8fbd 2498 5d3e 1a76 26be feb6 5a3c
00000010: 2610 42be 3fb4 6e3d d3db 223e 6194 4b3e
00000020: 85fc 653c e8eb 713c 19f9 c93c 86e0 1f3d
00000030: dd43 c5bd c29e 44be 6df8 5f3e 4413 4e3c
00000040: d1d8 363e deb8 763d 8e86 82bd 652f f83d
00000050: f04e 493c 996a fa3b a5c4 533e cfbd af3d
00000060: 1349 73bd 9e08 7dbd c965 df3d 24dd dbbd
00000070: 928f 0cbe cd1c 3d3d 3da5 48be 1fdd 44be
00000080: f919 dabd da37 9fbd dbc8 42be 6ca5 21be
00000090: e6f8 8c3d d0eb 303e abfa 6abd c9f4 27be
000000a0: 737f 80bd 29ff 56be e3cb c33d e4fa 96bd
000000b0: 9dc8 df3c ffad 16be dc39 2bbd ee9f 4dbe
000000c0: 2768 5f3d 281e 34be cdec 583d aa48 21be
000000d0: b117 3ebe d009 d83c 49ad 193e 4c57 0dbe
000000e0: 68a1 17be dcb7 253d ad36 a13d 62b1 643e
000000f0: 9ae6 133e 7431 583e 71a3 b73d 6e0c b8bb
00000100: bbe4 a5bd 16b2 c63c dc4d 413c bd50 1b3c
00000110: 2053 a43d 7fb9 113e 800a 5cbe 8543 19bd
00000120: 513a 22be 4ebd 543d f9c4 f4bc 80cc 59be
00000130: 0868 21be a74a 433e fc75 03bc 606c 08bd
00000140: 7421 38be 71ff 30bd 906d 2abe c928 49be
00000150: 2ee4 4a3e 78ca 0f3e 0e4c 2f3e 8547 e83d
00000160: e89f 54be ab3f 5e3e edfc 5dbd 0871 bb3d
00000170: d1d4 91bd e551 6d3d fb9f 13be 096a a73c
00000180: e939 c33d c9bb dd3d 659f e2bd 1628 5c3e
00000190: 0d1e 4f3e d51f 3b3e 9bcf 37be 2b7c 50be
000001a0: fd85 2dbe ecca 8e3c 0f53 9d3d 3ef2 4cbe
000001b0: 7fb2 62be 56b6 c1bd 2d4c e53d cef9 54be
000001c0: d35b 48bc 5fa6 0fbe 73d1 a9bc d1f2 c9bd
000001d0: 2aa5 b43d 4b8c b43c bc6a be3b 640c 6bbd
000001e0: a447 45be ab3a 37bd f54f cebd 1316 453e
000001f0: 7a0d edbd ff57 443e 94a7 0bbe 2dbb 183d
00000200: 8f38 043e dfc7 9bbd 3476 82bd 2dea 1ebd
00000210: 4e3e 8bbd 299c 43be 3b62 3cbd 5ab5 a2bd
00000220: 6d15 febd caed 8ebd 5817 ec3b 3c0a c63d
00000230: c2b7 2fbe 281a 2bbe b6ba e23d f2d6 3a3e
00000240: b470 c63d 15df 283e 2509 583b 2264 3e3d
00000250: 678d d53d ca31 7b3d e967 e03a a05d f93d
00000260: 6fac 33be ba88 a33d 3b30 d2bc c2f0 523e
00000270: 0d1a d2bc c84f ecbc 44cb e0bd faee 44bd
00000280: d19d 4ebe d3d5 d2bd e56d dabd 7f07 ef3d
00000290: cb1f 3f3e 18c4 5f3e c6c4 08be 1a31 e9bd
000002a0: 5379 1abe 8df8 fb39 04a4 21be 39d7 64be
000002b0: 938b c23c b78d 833d b1c9 233e 7509 2c3e
000002c0: 15c7 333e 5f40 2bbe cfdd 153d 027c 743d
000002d0: 98b7 613c 3ab8 39be 58bb 153e de43 093e
000002e0: 0ec8 a0bd 7515 b6bd 046f 62be de0a 52be
000002f0: 65aa 40be d660 1dbe 3827 55be d7cf 57be
00000300: b57b 433e e758 033d 2706 103e 6064 abbd
00000310: e937 b93d 3d94 2fbe 9042 09bd 4d74 b8bd
00000320: 3b8c d83d db3c e93d 9ad5 543d e34e f23d
00000330: 8d54 6e3d 1099 523e 1e78 f0bd 44a0 9ebd
00000340: 1db4 62be 0c7c e93c cbb8 503e 8083 aa3d
00000350: d7aa 583e 1ef9 34bc a49c 5dbe 322d 543e
00000360: be77 12be da9d e13d ec80 1abe 6282 27be
00000370: 10c5 9c3d 444c 113e c9bb 61be c2dc 2d3e
00000380: ab20 1cbe 6701 adbd 6b00 2f3d a0b4 0cbe
00000390: 4deb a8bd 4498 a3bd 3555 cebd f3c2 55be
000003a0: f639 643e 9756 343e 5631 763d 3fa9 36be
000003b0: d6cb f83d 632b d73d 0174 3e3e a3ef 08be
000003c0: b9a6 05be 34a5 03be f6c8 61be 93db 80bd
000003d0: 7610 81bc 6c5b 563e 0e9f 05bd 2f79 60be
000003e0: 5882 34be aef2 d93d 7345 e4bd 7e7c bc3b
000003f0: a629 c93d 2815 f1bd 3e18 48be 3109 2b3e
-0.07001906 0.21640068 -0.1625599 0.013349293 -0.18951473 0.058277365 0.15904169 0.19880821
0.014037256 0.014765717 0.024654912 0.03903248 -0.096320845 -0.19201186 0.2187211 0.0125778355
0.17856146 0.060234897 -0.063733205 0.12118415 0.012286887 0.007642102 0.20680483 0.08581125
-0.05939586 -0.061775796 0.10908086 -0.107355386 -0.13726643 0.046170045 -0.19594283 -0.19224976
-0.10649485 -0.07774325 -0.19021933 -0.1578576 0.06883411 0.17277455 -0.05736796 -0.16401972
-0.06274309 -0.20995773 0.09560373 -0.07372072 0.02731734 -0.14714812 -0.041803226 -0.2008054
0.054542687 -0.17589629 0.052960206 -0.15750375 -0.18563725 0.026371866 0.1500751 -0.13802832
-0.14807665 0.040458545 0.07871757 0.22333291 0.14443436 0.21112615 0.08966721 -0.005616716
-0.081002675 0.02425484 0.011798348 0.009479699 0.08023667 0.14230917 -0.2148838 -0.037417907
-0.15842558 0.051938348 -0.02987908 -0.21269417 -0.15762341 0.19071446 -0.008023735 -0.03330648
-0.17981511 -0.043212358 -0.16643357 -0.19644465 0.19813606 0.1404208 0.17118856 0.11341766
-0.20764124 0.21703975 -0.054196287 0.091524184 -0.0712067 0.05793943 -0.14416496 0.020436304
0.0953253 0.10826833 -0.11065558 0.21499667 0.20226307 0.18273862 -0.17950289 -0.20359866
-0.16945644 0.017430745 0.07681858 -0.20014283 -0.22138403 -0.09458606 0.1119617 -0.20798418
-0.012228924 -0.1402831 -0.020729756 -0.09860767 0.08820565 0.022039553 0.0058110636 -0.057384863
-0.1926561 -0.044733685 -0.10073844 0.19246702 -0.11574836 0.19174193 -0.13638145 0.03728788
0.129122 -0.07606482 -0.06370202 -0.038797546 -0.06798993 -0.19102539 -0.045992117 -0.07944746
-0.124064304 -0.069789484 0.007204931 0.09669921 -0.17159942 -0.16709197 0.110707685 0.18246058
0.09689465 0.16491349 0.0032964435 0.046482213 0.10427361 0.06132678 0.0017120811 0.12176061
-0.17546247 0.07985063 -0.025657764 0.20599654 -0.025647188 -0.028846636 -0.1097627 -0.04807947
-0.2017739 -0.1029469 -0.10665492 0.11671352 0.18664472 0.21852148 -0.13356313 -0.113863185
-0.15085344 0.00048059635 -0.15785223 -0.22347726 0.023748195 0.06423514 0.15994908 0.16800483
0.17556413 -0.16723774 0.036588486 0.059688576 0.013776682 -0.18136683 0.14622247 0.13404796
-0.078506574 -0.08890811 -0.22112662 -0.20511958 -0.18815 -0.15368971 -0.20815742 -0.21075378
0.19090159 0.032067206 0.14064847 -0.083687544 0.09043867 -0.17146392 -0.033510745 -0.090065576
0.10573622 0.113885604 0.05196152 0.11831453 0.058186103 0.20566201 -0.117416605 -0.07745412
-0.2213902 0.028501533 0.20382993 0.08325863 0.2115892 -0.011045722 -0.21641785 0.20720366
-0.1430349 0.11016436 -0.15088242 -0.16358331 0.07654774 0.1418925 -0.2204429 0.16978744
-0.15246837 -0.08447533 0.042725008 -0.13740778 -0.08248005 -0.07988027 -0.10074846 -0.20875148
0.22287735 0.17611156 0.060105644 -0.17838 0.121482536 0.10506322 0.1859894 -0.13372664
-0.13051881 -0.12855989 -0.22049317 -0.062918805 -0.01575492 0.20933312 -0.03262239 -0.21921228
-0.17627847 0.106419906 -0.11146059 0.0057521453 0.09822397 -0.11771613 -0.19540498 0.16702725

bn1.weight f4 [512]
00000000: 29e2 7e3f 3223 803f 5bd8 7f3f 5034 803f
00000010: 130f 7f3f 8af8 7e3f 3381 7e3f 89d6 7f3f
00000020: fb8f 843f f306 7f3f 7987 803f 9be4 7e3f
00000030: 796d 803f addb 7f3f 56b0 7f3f 52ce 803f
00000040: 83a3 7d3f 2dc9 7f3f 89e6 7f3f 173a 803f
00000050: c582 7f3f f51b 803f dba5 803f 5c4a 813f
00000060: 3e7c 7f3f 9a39 803f 9804 803f 6494 7e3f
00000070: 3243 7e3f 6965 803f 7f94 7e3f 79e0 7c3f
00000080: 82c9 7d3f 7f25 803f fa45 7f3f db6b 7d3f
00000090: 0fa7 7f3f 9421 803f 4938 7e3f 7872 803f
000000a0: e1be 7e3f 24b7 7e3f 5d33 7f3f 92a4 803f
000000b0: da93 7d3f 77f5 7d3f b0a6 7e3f 1fb1 7e3f
000000c0: 9c40 7e3f 75ab 7e3f ef03 803f 518c 803f
000000d0: 2720 7f3f 7f4e 7f3f d1b2 7d3f 358d 7f3f
000000e0: 7ec9 7e3f efce 7e3f 78ce 7c3f 7510 7f3f
000000f0: cc8d 803f 0f8c 833f 7e20 803f 1142 813f
00000100: 8a99 803f 3d6e 7f3f aee7 803f 7900 7f3f
00000110: 8125 803f 7178 7e3f 6521 803f ef55 813f
00000120: b0c5 7f3f 8e39 7c3f b2d3 7e3f 869e 7e3f
00000130: 5c79 803f d0f2 7e3f e06e 843f 72e5 803f
00000140: 8904 7f3f cd0b 803f 36b9 7d3f 0ed3 7e3f
00000150: 6610 803f e6ae 7e3f 746f 7f3f 6227 7e3f
00000160: e4d1 7d3f eaf6 7e3f 8c4b 803f 3724 803f
00000170: c80f 803f 823c 7f3f 8e8b 7d3f 3208 7e3f
00000180: 1e02 803f 0af7 7d3f b2c8 803f 9a10 803f
00000190: 00aa 7f3f 1e43 7f3f 525d 803f cd59 7e3f
000001a0: 7090 823f 7003 803f fc90 7f3f 1618 823f
000001b0: 727b 7f3f 7726 7f3f 9f91 7f3f e04e 7e3f
000001c0: 9e2f 803f 36e7 7e3f a73b 7d3f 29c8 7f3f
000001d0: 0c7a 7f3f ec9e 7e3f 268e 7e3f f152 803f
000001e0: 54a6 7e3f ea2e 7f3f 16c2 7f3f 773c 803f
000001f0: 7716 7d3f eb86 7f3f 2011 803f 453c 803f
00000200: 17d1 7e3f dccf 7c3f 06c7 7e3f 2a7d 833f
00000210: fd18 803f b70c 7f3f 58ab 7f3f 8c7e 7f3f
00000220: 9e57 7e3f 321a 833f ae85 7d3f 410d 803f
00000230: 3b54 803f 53e1 7e3f 59e7 7f3f f58e 7f3f
00000240: 0bd4 7f3f 8a13 7f3f c8c5 803f 8211 7f3f
00000250: 838f 7e3f 3208 7e3f dc3e 7f3f 1505 7d3f
00000260: a87d 7d3f a6c6 7d3f 923b 803f fd80 7f3f
00000270: 7cc2 7e3f b21f 803f ad10 803f 85cd 7d3f
00000280: e701 803f 94e6 813f 75a9 7f3f 6dd0 7d3f
00000290: 2e4c 803f e030 7f3f 74b7 7d3f 5405 803f
000002a0: 5071 7d3f a3eb 7c3f 7872 803f b337 803f
000002b0: cf06 7e3f 5a1b 803f bc14 803f 7c44 803f
000002c0: ffc4 7f3f a134 7f3f f26f 803f a231 813f
000002d0: 7740 803f 2c95 7e3f eba4 7e3f 34ae 7e3f
000002e0: 86f9 7f3f 7280 7f3f e5bd 7d3f 6a86 7f3f
000002f0: 5851 803f a850 803f 890e 803f cd5e 7e3f
00000300: decf 7d3f b06c 7e3f ed48 7e3f 7269 7e3f
00000310: bc90 7e3f 1c38 803f 061c 803f bd3e 7e3f
00000320: 257b 7f3f 18f1 7e3f cc17 7e3f d9a7 7e3f
00000330: cb96 7c3f e11d 7f3f 3c90 7f3f 732b 803f
00000340: eabd 7e3f d49a 7e3f cd5d 803f 179d 823f
00000350: fbd3 7e3f 0bf4 803f a811 803f 0f22 803f
00000360: 4c85 7f3f 16af 7e3f 06ec 803f aeb7 7f3f
00000370: f316 7f3f 7682 7f3f 2971 7f3f 96c5 7d3f
00000380: 5c98 7e3f 4f5c 7f3f 698a 803f c0eb 7e3f
00000390: 452c 803f c0e8 803f 7028 7f3f 5692 803f
000003a0: 00aa 7f3f 8c2b 803f 2e44 7d3f 52ff 803f
000003b0: 35f0 7d3f d2c2 7e3f 07eb 7f3f e120 803f
000003c0: f2a5 7e3f d47c 7e3f 95fe 7f3f 058d 7f3f
000003d0: b4b6 7f3f b981 7d3f 2458 843f c334 7e3f
000003e0: 0053 803f fd3e 7e3f 558a 7f3f a58d 7f3f
000003f0: ba1c 7e3f ad33 7e3f 3cc8 803f a6ff 7f3f
0.99563843 1.0010741 0.9993951 1.0015965 0.99632376 0.9959799 0.9941589 0.9993673
1.0356439 0.9961998 1.0041343 0.99567574 1.0033408 0.99944574 0.9987844 1.0062964
0.99077624 0.99916345 0.99961144 1.0017728 0.99808913 1.0008532 1.0050615 1.0100818
0.99798954 1.0017579 1.0001402 0.99445176 0.9932128 1.0030948 0.9944534 0.9878002
0.991356 1.0011443 0.9971615 0.989927 0.99864286 1.0010247 0.99304634 1.0034933
0.9951001 0.994982 0.9968775 1.0050223 0.9905373 0.99202675 0.99473095 0.99489015
0.99317336 0.9948037 1.00012 1.0042821 0.99658436 0.9972915 0.9910098 0.9982484
0.995262 0.99534506 0.98752546 0.99634486 1.0043273 1.0277117 1.0009916 1.0098287
1.0046856 0.99777585 1.0070703 0.99610096 1.0011445 0.9940253 1.0010191 1.010435
0.9991102 0.9852532 0.9954177 0.9946064 1.0037036 0.9958925 1.0346336 1.0070021
0.99616295 1.0003601 0.99110734 0.99540794 1.0005004 0.99485624 0.9977944 0.99278843
0.9914839 0.9959551 1.0023055 1.0011052 1.0004816 0.997017 0.9904107 0.99231255
1.0000646 0.99205077 1.0061247 1.0005066 0.99868774 0.9971179 1.0028479 0.99355775
1.0200329 1.0001049 0.99830604 1.01636 0.9979774 0.9966807 0.99831575 0.99339104
1.0014532 0.9957155 0.9891915 0.99914795 0.99795604 0.99461246 0.9943565 1.0025312
0.99472547 0.9968096 0.99905527 1.0018452 0.98862404 0.99815243 1.0005226 1.0018393
0.99537796 0.9875467 0.99522436 1.0272572 1.0007626 0.99628776 0.99870825 0.9980247
0.99352443 1.0242369 0.99032104 1.0004045 1.0025705 0.9956257 0.99962384 0.9982751
0.99932927 0.9963919 1.0060358 0.9963609 0.9943773 0.99231255 0.9970529 0.9883588
0.9901986 0.9913124 1.001818 0.99806195 0.9951551 1.0009673 1.0005089 0.9914172
1.000058 1.0148492 0.99867946 0.9914616 1.0023248 0.9968395 0.9910805 1.0001626
0.99001026 0.98797053 1.0034933 1.0016998 0.9922914 1.0008347 1.0006328 1.00209
0.9990997 0.9968968 1.0034163 1.0093272 1.0019673 0.9944637 0.99470395 0.9948456
0.9999012 0.99805367 0.9911788 0.99814475 1.0024824 1.0024614 1.0004436 0.99363405
0.99145305 0.99384594 0.99330026 0.99379647 0.994396 1.0017123 1.0008552 0.9931448
0.9979728 0.9958663 0.9925506 0.99474865 0.9866759 0.99654967 0.9982946 1.001326
0.99508536 0.99455 1.0028626 1.020419 0.99542207 1.0074476 1.0005388 1.0010394
0.9981277 0.9948591 1.0072029 0.9988965 0.9964439 0.9980844 0.99782044 0.9912962
0.9945123 0.99750227 1.004224 0.99578476 1.001351 1.007103 0.9967108 1.0044658
0.99868774 1.001329 0.9893216 1.0077918 0.9919465 0.9951602 0.99968 1.0010034
0.9947196 0.9940922 0.99997836 0.99824554 0.9988816 0.99026066 1.0339398 0.9929926
1.002533 0.9931486 0.9982045 0.9982551 0.99262583 0.992976 1.0061107 0.99999464

bn1.bias f4 [512]
00000000: 1723 0abc 52c1 6aba 99cf 0b3b c9b4 4dbb
00000010: 277e ac3a d87b 02bc f2d4 b3bb 8a6c ea3a
00000020: a905 453c 9250 02bc 3ed2 cb3b 02b3 24bb
00000030: 5669 823a f3a7 a1ba d302 d8bb 733f 32ba
00000040: 8344 2ebc 4daf 24bb c19b f5bb f761 2a3b
00000050: 38b3 d63b f78c 5cbc 5712 623b 7b3b e83a
00000060: fb2e d239 f376 e33a e662 c2ba b069 49ba
00000070: 1180 3dbb 111f fb3b eb20 71bc 8777 ddbb
00000080: af0a 99bb eafa 993b 3dc2 efbb 89e2 67bb
00000090: 0ed5 46bb 7500 9a3a 4b61 813a 793b 45bb
000000a0: 1c6d 34bb 7caf 9abb 10b5 b4ba 267c b2bb
000000b0: 4175 ffba ca57 e6bb 85a5 acbb 0b20 7cbb
000000c0: 74f0 26bb 1ef3 cbbb 4161 703a b50f 3bbb
000000d0: bed4 ceba 3dea e0bb be4b fdbb 08c3 c4ba
000000e0: 60e4 df39 2c6a 95bb 26da 81bc c579 0dbc
000000f0: fac3 203b 91a3 db3b ec52 60bb 837d c93c
00000100: 3108 12bc 26dc aabb e108 003c 2638 0abc
00000110: f3a3 b0bb b7c7 72bb 5b61 1cbb ca35 84ba
00000120: b5ff d3ba eb9a 41bc d96e 4d3b 2181 78bb
00000130: 3eb1 c93a 742f 8bbb ff6e 293c 8df5 fa3a
00000140: 12cc 2ebc 129e 41bb b175 6fbb 43bc 3ebc
00000150: bdef 013b a297 bbbb 32cc f7bb 28b0 5abb
00000160: 2a92 2dbc 4484 87bb 0617 7fbb 6a29 dd3a
00000170: 0670 4b3a 5179 6ebb 12ce b9bb 8711 17bc
00000180: fd45 dd3a 988c 69bb 33a3 b23b 6499 f239
00000190: e88d f239 0c96 43b8 1351 cfbb c8ea 3f39
000001a0: 8445 863b cba6 68ba c3a1 57bb 7fbc e93b
000001b0: 14a8 ff3a 8663 ffbb 706d f8ba 744b 05bc
000001c0: f83d 043b 9a7d 2bbc fb6d 13bc a5eb 3d3c
000001d0: 45c5 c0ba e0a7 68bb b7a4 55bc 9665 103b
000001e0: 8466 1abb cb6d a4bb c529 90bb bbd5 02bb
000001f0: a09e 6bbc 57a2 9dbb b8e1 94bb 7209 f23b
00000200: c174 13bc 9892 13bc 13c1 62bb 8982 9d3c
00000210: 57e5 c1ba c6e2 ddbb 67ac 8dbb 3f38 36bb
00000220: 81fd 21bc a948 ae3c 9ad9 aabb 8c62 fb39
00000230: f9a0 33bb 8500 e4ba 76b7 99bb eeb9 90bb
00000240: 7f69 623a f76c beba 0918 693b 4aa5 55bb
00000250: 3f7f 8bb9 f195 37bc 0864 17bc 8788 37bc
00000260: bbd2 6ebc 62d1 bcbb e2ec 10bc 57e1 c8bb
00000270: 0230 bdbb 9631 b83a 1973 923a 5f29 23bc
00000280: a8e0 263a e057 a13c 1b73 a0ba 3b7e 02bc
00000290: d9b5 ca3b 47eb 7abb 9b3d f1bb e9fe 213a
000002a0: 6f00 29bc 3fdb 9fbb 485f 2639 99c9 a0ba
000002b0: 4ee4 13bc 9c4c 35bb 4e2f 11bb 9d2e e2bb
000002c0: 8936 14bb 8820 023b bdbe 02ba 8578 073c
000002d0: dfe9 283b 04ab 80bb c39c 92bb b412 58bb
000002e0: d662 a8bb 962e 11bc e50c 66bc 3bb4 d83b
000002f0: 4964 133a 9401 8e3b 54c6 5b3a c984 14bb
00000300: 54c8 d9bb 7778 1abb e2cc 2ebc 72a4 28bc
00000310: 2b18 d7ba 1269 ae3b d043 a4bb 4cb6 9bbb
00000320: 5fd9 39bb 5f3a abba 17f7 03bc 22da 0cb9
00000330: 667e 02bc 54d5 c53a 8913 e73b dfd4 38bb
00000340: 3c09 05bc 2431 febb 0c62 f2b9 27cf d43c
00000350: 7310 2fbb 0a23 95ba ec26 d4ba fab7 9f3b
00000360: 3d56 67bb 953b 1cba 5753 0bba 77cb 86bb
00000370: 4f96 9e39 d0af 99ba 4d70 a3bb e855 0fbc
00000380: 85bb 96bb f8d5 423b bcd0 aa3b 976c a8bb
00000390: 2983 b2bb 3715 1ebb 0350 96bb f853 3db9
000003a0: b03c b33a b1e4 77bb ccba 48bc 1246 3bbc
000003b0: 633d ccbb e51a 35bb cdb2 febb a337 523b
000003c0: b7d5 93ba c3f8 1abc 4599 45bb 44a7 213b
000003d0: 5969 91bb 13b1 dfbb a1aa 333c 8cde 4bbc
000003e0: 3ee5 b03b 419d 4dbb d596 91bb 86d5 9ebb
000003f0: 52c9 b3bb 5a48 9abb cc71 913a b1b3 233b
-0.008431218 -0.00089551986 0.0021333455 -0.0031388274 0.0013160155 -0.007964097 -0.0054880315 0.001788513
0.012025275 -0.00795378 0.006220131 -0.002513111 0.0009949605 -0.0012333378 -0.0065921335 -0.0006799616
-0.010636452 -0.0025128901 -0.007495374 0.0025998333 0.0065521263 -0.013461343 0.0034495795 0.0017717922
0.00040089324 0.0017354175 -0.00148305 -0.000768329 -0.0028915445 0.0076636155 -0.014717321 -0.0067586335
-0.004670463 0.0046991007 -0.007316856 -0.0035382828 -0.0030339393 0.0011749404 0.0009870915 -0.0030095263
-0.0027530855 -0.0047206264 -0.0013786871 -0.0054469286 -0.00194899 -0.0070295082 -0.005268755 -0.0038471248
-0.002547291 -0.00622405 0.00091697654 -0.0028543298 -0.0015779955 -0.006863861 -0.0077299764 -0.0015011737
0.00042704027 -0.004559776 -0.015851092 -0.008634989 0.0024530874 0.0067028482 -0.0034229113 0.024595981
-0.008913086 -0.005214232 0.007814617 -0.008436238 -0.005390638 -0.003704531 -0.002386174 -0.0010086831
-0.0016174229 -0.0118167205 0.0031346588 -0.0037918764 0.0015387905 -0.0042476 0.010341405 0.0019146666
-0.010668771 -0.002954368 -0.0036538655 -0.011641565 0.0019826733 -0.005724863 -0.007562184 -0.0033369157
-0.01059393 -0.0041356403 -0.0038923635 0.0016873304 0.0007760528 -0.0036388228 -0.0056703174 -0.009220487
0.001688182 -0.003563678 0.005451584 0.00046272122 0.00046263565 -4.6631365e-05 -0.0063268035 0.00018302642
0.0040976424 -0.0008874952 -0.0032902814 0.007133066 0.0019505047 -0.0077938465 -0.0018953513 -0.008135665
0.0020178538 -0.010466957 -0.008998389 0.011591827 -0.0014707228 -0.0035500452 -0.013039759 0.0022033206
-0.002355964 -0.005017971 -0.0043995106 -0.001996382 -0.014381081 -0.004810612 -0.0045435093 0.00738638
-0.009000004 -0.009007119 -0.0034599944 0.019227283 -0.001479308 -0.0067714183 -0.0043235305 -0.0027804521
-0.0098871 0.021274881 -0.0052139284 0.00047947874 -0.002740918 -0.0017395174 -0.0046910597 -0.004416696
0.0008636936 -0.0014528324 0.0035567305 -0.003259974 -0.00026606952 -0.011205182 -0.009240158 -0.011201984
-0.014576609 -0.005762265 -0.00884554 -0.006130378 -0.0057735452 0.0014052864 0.0011173218 -0.009958594
0.0006365874 0.019695222 -0.0012241335 -0.007964666 0.0061862287 -0.003828721 -0.0073620803 0.0006179647
-0.010315045 -0.004878431 0.00015866489 -0.0012267112 -0.0090266 -0.002766407 -0.002215344 -0.0069025294
-0.0022615513 0.0019855816 -0.00049875287 0.00826848 0.0025774164 -0.0039266367 -0.004474254 -0.0032970132
-0.0051387353 -0.008861205 -0.01404116 0.006613282 0.00056225486 0.004333684 0.000838374 -0.0022662154
-0.0066461954 -0.0023570338 -0.010668965 -0.010293113 -0.0016410401 0.005322584 -0.0050129667 -0.004751956
-0.0028358323 -0.0013063661 -0.008054516 -0.00013432701 -0.007964706 0.0015093484 0.0070518893 -0.0028203053
-0.008119877 -0.007757323 -0.00046230888 0.025977684 -0.0026712685 -0.001137824 -0.0016185916 0.0048742266
-0.0035299205 -0.0005959806 -0.0005314848 -0.0041136104 0.00030248097 -0.001172537 -0.0049877525 -0.008748509
-0.004599991 0.0029729586 0.0052128714 -0.005139898 -0.0054477644 -0.0024121532 -0.004587175 -0.00018055725
0.0013674702 -0.003782552 -0.012251567 -0.01143028 -0.006232904 -0.0027634439 -0.0077727796 0.003207662
-0.0011278902 -0.0094587235 -0.003015117 0.0024666348 -0.0044376072 -0.006826529 0.010965974 -0.012443196
0.0053984215 -0.0031374248 -0.0044430294 -0.0048472313 -0.0054866457 -0.004708332 0.0011096536 0.002497893

bn1.running_mean f4 [512]
00000000: b2a7 55c1 c73b 4f41 0bd5 7141 8f61 1fc1
00000010: 2b7b df40 6ee4 6841 ca27 8e41 9cba 2641
00000020: f3f5 dabf 3ddf 8dc1 a2ee 6341 6bd9 8441
00000030: 7edb 9bbe 7328 01c1 c7af 8140 f228 b83b
00000040: 7aad 22c1 1387 29c1 225b 00c1 6bb8 f2c0
00000050: 6fbd 7dc1 f5ff 2dc0 21ea 1f41 540f 83c0
00000060: 4366 09c1 29bc 4741 4ecd cc3f d644 4e41
00000070: fc44 1241 203d 383e 13e8 9d41 76f1 52c1
00000080: fea2 5641 38a2 6a41 485f 9941 fdd1 1cc0
00000090: 35aa 8fc1 f4fa 44c1 6d2e 76c1 9742 66c1
000000a0: 0a21 4c41 4a10 6141 d42a 5a41 6892 a83e
000000b0: ce0e 3441 dcf0 1541 58d2 8ec1 72b5 1541
000000c0: 75ce 7941 dadd 92c0 daaa 7b41 feb5 65c1
000000d0: d4c4 a140 d0eb f840 fa1d 5e40 eca0 7340
000000e0: a740 61c1 fe56 89c1 9d12 3541 78ca 55c0
000000f0: 3650 9bc1 ce6f cf3e cc97 3e40 a2da 8abf
00000100: 29ce 07c0 e741 98c1 3ae0 473f 9866 7f40
00000110: 834d 55c1 ccc0 9c41 546a 5ac0 2bc7 bcbf
00000120: af52 5ac1 854e 4341 a5fd 10c1 2a07 0a41
00000130: 9647 8cc0 7879 8f41 f5e6 e5bf 1cd8 0641
00000140: c6f9 04c1 a3c9 96c1 0d2b 7a41 317d 3c41
00000150: f568 81c1 655b a1c1 7934 7541 a46e 0940
00000160: b405 8b41 fa09 4841 7b3e 9540 281b b8c0
00000170: f2ca 1e41 ee7c 3341 fe6d 70c1 3456 8141
00000180: c058 1041 549e dbc0 cc67 9a40 5fd5 0041
00000190: fddf 3541 b490 7841 d5be e5bf 54d8 6d41
000001a0: 8eed 19bf 4d00 b240 8278 2141 6be0 d3bf
000001b0: 4e34 9841 a331 8541 f18b 4cc0 9320 94c1
000001c0: 105c d540 a4a6 bcbf 36c0 08c1 4c8f 6bbf
000001d0: bc95 2d41 188e 3d41 117f 9741 56b3 32c1
000001e0: 68cc 85c0 39f7 8641 c487 d5c0 7806 a2c0
000001f0: 6f67 3141 93b2 91c1 a31c 5b40 13a3 b0c1
00000200: 55fa 09c1 e4dd 53c1 2f58 51c1 d628 553f
00000210: 1280 7240 ddca e940 7be8 b940 6881 a440
00000220: cfee 9741 ca4c e23e c9e2 7ec1 6373 9641
00000230: e3e3 76c1 0012 4141 044c 97c1 05d2 8fc1
00000240: 4823 bdbf 8818 4ac1 3ad7 3641 09dd 8b41
00000250: 4c38 3341 a7ca 6a41 0548 a6bf e07a 8941
00000260: 87e2 a241 c127 23c1 d2a0 7fbf 3240 5fc1
00000270: 4f61 8a41 8753 673f 51eb e040 6af5 a241
00000280: 3e5f 75c1 b82b 05bd a31c 9741 d947 2b41
00000290: 2c86 34c1 ec96 32c1 ce9b 8441 2f06 5841
000002a0: 46d1 19c0 25c2 5841 645c 14c1 2a39 c0c0
000002b0: 6a76 9ec1 4905 6941 a416 0bc1 a630 9340
000002c0: 1b9c a941 5dd8 a0c1 c114 7941 1c82 d93f
000002d0: 0453 1c41 0e7a 8c41 94a5 9fc1 6c6e 8141
000002e0: 8c66 b8c0 229c 8bc1 8fcf a5c1 b06a 67c0
000002f0: 38de a2c1 fe30 0941 93e1 15c1 c96d f63f
00000300: d4d3 8841 db57 5cc1 d840 7541 5c62 6b41
00000310: fe7b 8f41 2a0c 523f 0c11 96c1 4d2c 993f
00000320: 746b b940 d640 9441 d453 9ac1 ba94 a340
00000330: da4d 75c1 1b2e 1441 0da8 f740 f687 5741
00000340: 2858 0c41 1cec 7941 4a18 a43f 00b9 a3be
00000350: 7c18 fd40 cd97 f4c0 5d6d 5b41 b4de 2f41
00000360: 88f6 9841 d657 8641 4504 fec0 1d7e 9541
00000370: 8b0d 98c1 09ca 60c1 6a6b 48c1 1891 4ac1
00000380: c1aa 6341 dc61 9cc1 cd2b 4e41 ec47 6941
00000390: a6b8 8a41 15de 4fc1 5e18 99c1 eafd 4ec1
000003a0: 4759 c83f b928 8240 8a53 1fc1 d3b8 75bf
000003b0: 3361 74c1 1f76 7d41 d229 7ac1 9593 81c1
000003c0: 0192 6c41 73b0 4cc1 225f 6d41 d006 5ec1
000003d0: 60e3 28c1 8338 1c41 2851 14be cf9a 2441
000003e0: 1fd0 1b41 aeda 8941 9154 9a41 39e4 86c0
000003f0: 6aab 1941 7037 5b41 bc93 94c1 417f bbc0
-13.353441 12.952094 15.114512 -9.961318 6.983785 14.555769 17.769428 10.420559
-1.7106308 -17.734003 14.24576 16.606161 -0.30440897 -8.072375 4.052707 0.0056201154
-10.167353 -10.595477 -8.022249 -7.585012 -15.858748 -2.7187474 9.99466 -4.095621
-8.587466 12.483438 1.6000154 12.891806 9.141842 0.17992067 19.738317 -13.18395
13.414793 14.664604 19.171524 -2.4503167 -17.958109 -12.311268 -15.386334 -14.391257
12.758066 14.066477 13.635456 0.329242 11.253614 9.371304 -17.852707 9.356798
15.612905 -4.5895815 15.729212 -14.356932 5.055277 7.7787857 3.4705796 3.806697
-14.078284 -17.167477 11.317044 -3.3404827 -19.414165 0.40514988 2.978015 -1.0847971
-2.121958 -19.032179 0.7807652 3.9906368 -13.331424 19.59414 -3.4127398 -1.4748281
-13.645186 12.20667 -9.061925 8.626749 -4.3837385 17.93431 -1.7961107 8.427761
-8.31098 -18.848455 15.63551 11.780564 -16.176249 -20.169626 15.325311 2.147378
17.377785 12.502436 4.663877 -5.753315 9.924547 11.218 -15.026854 16.167091
9.0216675 -6.863077 4.8251705 8.052093 11.367185 15.535328 -1.7948862 14.8653145
-0.60128105 5.5625367 10.091921 -1.6552862 19.02554 16.649237 -3.1960413 -18.515905
6.667488 -1.4738355 -8.5469265 -0.9201553 10.849056 11.847191 18.937044 -11.168783
-4.181202 16.870714 -6.672823 -5.0632896 11.087752 -18.212194 3.4236228 -22.079626
-8.623616 -13.2416725 -13.084029 0.83265436 3.7890668 7.3060136 5.809629 5.1407967
18.991606 0.4419921 -15.930367 18.806341 -15.430636 12.066895 -18.912117 -17.977549
-1.4776392 -12.630989 11.427546 17.482927 11.201244 14.674476 -1.2990729 17.184998
20.36061 -10.197206 -0.9985477 -13.953173 17.297514 0.9036183 7.028725 20.369831
-15.3357525 -0.032512397 18.888983 10.705041 -11.282757 -11.161846 16.576077 13.50151
-2.403398 13.547399 -9.272556 -6.006978 -19.80782 14.56379 -8.6930275 4.5996885
21.201223 -20.105646 15.567567 1.6992831 9.7702675 17.559597 -19.955849 16.178917
-5.762518 -17.451237 -20.726347 -3.6158867 -20.358505 8.574461 -9.367572 1.9252254
17.103432 -13.771449 15.328331 14.7115135 17.935543 0.8204981 -18.758324 1.1966645
5.794367 18.531658 -19.290932 5.111905 -15.331507 9.261256 7.739264 13.470694
8.7715225 15.620144 1.2819912 -0.3197708 7.909239 -7.6435304 13.7142 10.991871
19.120377 16.792889 -7.938021 18.686579 -19.006613 -14.049325 -12.526224 -12.660423
14.229188 -19.547783 12.885694 14.580059 17.34016 -12.991719 -19.136898 -12.936991
1.5652245 4.067471 -9.957895 -0.95985144 -15.27373 15.841338 -15.63521 -16.197062
14.7856455 -12.793078 14.835726 -13.876663 -10.555511 9.763797 -0.14484084 10.287795
9.738311 17.231777 19.291292 -4.215359 9.604349 13.701035 -18.572136 -5.859284

bn1.running_var f4 [512]
00000000: 6d5c 4842 bc0d 2f42 ab10 5742 87f3 d841
00000010: 8804 5741 65f3 3a42 ec39 a342 fc89 f641
00000020: 81eb 6e3f 94d5 7342 41cc 2042 b9f1 8842
00000030: 15a3 8c3e 4a4b 9e41 8fa8 a140 1bbd 533f
00000040: 340e d241 90a6 b341 3769 6141 94c7 4041
00000050: ab99 5842 0ded 6740 2008 d041 522d 8340
00000060: 0f02 4c41 ea76 fb41 96f4 a93f f027 0842
00000070: c1fa 9d41 1e17 1b3f 1f91 b442 4dfd 2542
00000080: 8dff 3042 b1b7 2e42 1fd0 b242 29d4 d23f
00000090: 1451 8e42 b3cd 3242 1e49 7942 987a 2f42
000000a0: 8b62 fb41 84c3 2442 d4ab 0f42 9f59 853f
000000b0: bc67 0c42 052a c341 e031 8e42 d5e3 ca41
000000c0: e6ef 5142 7afb f740 6d62 4a42 2cf9 5a42
000000d0: 8767 a540 7675 5141 87a7 3d40 b2f8 6e40
000000e0: f4f0 5c42 f996 8942 b8b4 e541 ac7d bd40
000000f0: d624 9d42 c4e4 0c3f 208b aa3f 4ea0 3f3f
00000100: ba45 0240 c33f aa42 82cc a83f 6596 8440
00000110: 14ee 2d42 5ded 9942 88a1 2340 db8d 0540
00000120: 214d 2442 a8a8 0d42 8bdf 7541 383a 7741
00000130: fbe6 a340 0cda 9942 e649 b23f 1f16 8441
00000140: c764 ab41 4185 a042 42a6 6342 fed1 1842
00000150: 5093 8342 ca1e b342 bd6d 3742 a81a 7d40
00000160: 0da9 8642 b1dc 2142 3a26 a140 2cd0 2b41
00000170: bf68 a441 0eae e941 1d87 4042 293e 8542
00000180: 6ab0 a741 026f 1841 8bc0 cc40 517a 5641
00000190: 1b4f 1842 9737 6e42 1be5 1540 29e7 3c42
000001a0: 9e37 a63f 0fb7 2241 6065 a841 bb7d d63e
000001b0: 75ba c042 7ef6 8842 a2ed 6b40 35d7 9d42
000001c0: 8bdb 2341 8ea7 bb3f 2ccd 8641 abea 793e
000001d0: ead5 f041 c88b 0342 1786 9542 37aa 0742
000001e0: 7de2 4340 9211 7442 a2f1 3141 a879 ad40
000001f0: 019d 0e42 98b4 9842 b3e8 ae40 5b9b d642
00000200: 3bf1 8d41 47fe 3742 87b9 1142 e16e 1540
00000210: ff17 8240 f9c9 1341 c7d7 0e41 c709 ae40
00000220: 6ba4 b042 8529 0940 da70 8742 49f0 a242
00000230: d621 6042 352d 0142 feb1 b142 3eb3 8942
00000240: 1dd3 0140 cd40 3642 9375 dd41 827a 8342
00000250: 9f2a fd41 c655 2842 defb 3340 6c04 7842
00000260: 3272 b342 1fcb e841 640e 403f e92a 2042
00000270: bb28 8242 a53f 173f 53e6 4841 73b5 b642
00000280: 7203 3d42 962d 0240 4b4b 9f42 53b8 b141
00000290: 8d63 0942 349f d741 09cf 6f42 9174 5842
000002a0: e9bc 4640 23ce 4a42 47c7 c241 503f 2941
000002b0: 5ac5 ae42 dd0a 2b42 89a1 a641 5451 3b40
000002c0: 3be0 ba42 2e9e b342 e036 5342 0caf 8f3f
000002d0: be9f a041 9c77 8342 073b c842 cd93 5542
000002e0: ff56 c940 9e1a 8642 d138 c042 c96c 5e40
000002f0: 0710 ba42 f2a6 8a41 ad57 a241 3b4c 4740
00000300: 7c62 8e42 1c54 3b42 78bb 3e42 b850 5742
00000310: 4966 9c42 7421 893f 06cb 9e42 7a6b f73e
00000320: c4c0 2e41 a6d3 9842 ac00 a142 1509 8340
00000330: 9764 8042 8238 b141 c214 6041 bfb8 3b42
00000340: 9eb7 b041 e343 5342 8812 613f 5a3d 173f
00000350: fb88 3c41 2924 5f41 5d1b 4942 3dd3 d141
00000360: 6c3e 9942 e713 7f42 1165 4141 04ea 9c42
00000370: dec7 9842 33cb 3a42 1739 0742 9d9a 3242
00000380: 90f8 4842 bdde 9f42 35cc fd41 896a 4442
00000390: fb2a 8442 4d34 0142 2adb b142 883b 1542
000003a0: 9ef6 8d3f a0fd d240 8314 c441 da8e 253f
000003b0: fabe 6a42 f357 7842 bc45 7042 b673 5f42
000003c0: 151f 4142 e55a 0742 c3d8 6f42 2459 1742
000003d0: 8e58 f941 ac64 bd41 11bb f63e 9457 f441
000003e0: ceb3 ba41 3048 8842 b559 9d42 2e9b 9540
000003f0: 9807 8f41 6ee9 3b42 a1d9 9342 8909 d540
50.09026 43.763412 53.766277 27.11891 13.438606 46.73769 81.61313 30.817375
0.933281 60.958572 40.199467 68.472115 0.27468172 19.786762 5.051826 0.8271043
26.256935 22.45633 14.088187 12.048725 54.150066 3.6238434 26.003967 4.0992823
12.750503 31.433064 1.3277767 34.039 19.747438 0.6058215 90.28344 41.497364
44.24956 43.679386 89.40649 1.6470996 71.158356 44.70088 62.321404 43.86972
31.423117 41.190933 35.9178 1.0417975 35.101303 24.395517 71.09741 25.361246
52.484276 7.749448 50.59612 54.743332 5.1688876 13.091177 2.96335 3.7339292
55.235306 68.79487 28.713242 5.921591 78.571945 0.5503657 1.3323708 0.7485398
2.0355058 85.124535 1.3187411 4.1433587 43.4825 76.9636 2.556734 2.0867832
41.07532 35.414703 15.367076 15.451714 5.121946 76.92587 1.3928802 16.510801
21.424208 80.26026 56.91236 38.20507 65.78772 89.560135 45.857166 3.954752
67.33018 40.46552 5.0359163 10.738323 20.551146 29.209988 48.131947 66.62141
20.96114 9.5271015 6.398504 13.404862 38.07725 59.554287 2.3421085 47.225742
1.2985723 10.169692 21.0495 0.418928 96.364174 68.48143 3.686379 78.92033
10.241099 1.4660509 16.850182 0.24405925 30.10445 32.886505 74.761894 33.916225
3.0606987 61.01716 11.121492 5.4211006 35.653324 76.35272 5.4659057 107.30343
17.742788 45.998318 36.43118 2.3348925 4.065429 9.23681 8.92768 5.4386935
88.32113 2.1431592 67.72041 81.46931 56.033043 32.294147 88.84764 68.85008
2.0285103 45.563282 27.68241 65.73927 31.645811 42.083763 2.8122478 62.00432
89.72304 29.09918 0.7502196 40.041904 65.07955 0.5908149 12.5562315 91.35439
47.253365 2.0340323 79.64706 22.215002 34.347218 26.952736 59.952183 54.113834
3.1052802 50.701305 24.347303 10.577957 87.38545 42.76061 20.828875 2.9268389
93.43795 89.808945 52.80359 1.1225295 20.078 65.73361 100.11529 53.394337
6.2918696 67.05199 96.11097 3.4753897 93.0313 17.331516 20.29281 3.1140277
71.19235 46.832138 47.683075 53.828827 78.199776 1.0713334 79.39653 0.48324186
10.922062 76.413376 80.50131 4.0948586 64.196465 22.152592 14.005068 46.930416
22.089657 52.816296 0.879189 0.5907799 11.7834425 13.946328 50.276722 26.228144
76.62192 63.769436 12.087174 78.45706 76.390366 46.698437 33.80575 44.65099
50.242737 79.935036 31.72471 49.10404 66.08395 32.301075 88.928055 37.308136
1.1090887 6.59346 24.510015 0.646711 58.6865 62.085888 60.0681 55.863
48.280354 33.838764 59.96168 37.83705 31.16824 23.674156 0.48189595 30.542763
23.337795 68.14099 78.67521 4.675193 17.878708 46.97796 73.92506 6.657414

fc2.weight f4 [256, 512]
00000000: 8ed4 dcba e804 433b 35cf 9fbc 38bd 8f3c
00000010: 8eb9 63bc 97ec 8dbc 7d46 f63b 3dad 023d
00000020: 781e 85bc c6ea e63c db37 b2bc 0c4a dfbc
00000030: bd1a b6bc 34be cebc 80d9 2fbd 84c5 413c
00000040: 0b13 313b 1de7 cfba b7d9 d2bc b037 4436
00000050: 5077 79bb 758f b53c 403e 1e3d 9a44 0a3d
00000060: f2b4 fe3a 65e4 1ebd a75a 27bd b41c 8dbb
00000070: ebcd 803c e7a5 0bbd f3b6 023d 8e35 5d3c
00000080: d3a8 19bc 448d 93bb 8133 1b3d e773 353b
00000090: 465e 27bd 3261 3c3b a764 503d 5a8d ca3c
000000a0: aca2 fb3c ea76 133d cdc8 263d 3a43 1bbd
000000b0: e02f 0c3d ade4 ab3c 6c84 553d 5448 523a
000000c0: 7a69 243d e995 9a3c b317 903c b4a8 14bc
000000d0: e58b ce3c 92e0 0c3d dbf5 223d b23d 1739
000000e0: f1f1 443b f68c 1d3d 9860 2dbd 68e6 a2bc
000000f0: 19b3 c43c edfb 23bd 688d f03b 2dad d0b9
00000100: 5a2b 3fba 72a8 b53c b233 2d3d 6760 073d
00000110: 98da 693b 1ee2 e2bc 5eed 303d 23e4 83bb
00000120: 2353 16bd dba4 c1bc d1b0 1e3d 2545 94bc
00000130: 2f00 123d e86d cc3a 26c6 3d3c b93c e43c
00000140: d4fe 1a3d 2733 31bd e3af 0d3d 33d1 443c
00000150: 5a5c 613b d027 5039 c306 b1bc 0c03 bebc
00000160: e40a 163d 8a2e 0e3d 240a d73b 39e0 2abc
00000170: b7ac 1ebd 57e8 7d3c 8fe7 0a3c a701 243b
00000180: 04db 0e3d fc9c e0bc 8e47 37bd 7c7f 27bc
00000190: b2d0 ea3b 6299 15bc 13ac 533c edc1 b63b
000001a0: a917 bebb c08d 023c d835 25bd 5fe7 3cbb
000001b0: c6cf a3bb 2218 0e3d a239 bebc 2409 123d
000001c0: 859b 8f3c a408 0c3d 98e4 18bd a2e5 bfbc
000001d0: ac08 083d 42fb 7cbb 87aa 94bc 23be 733b
000001e0: 12c8 2e3d 85a6 c13b f172 fdbc bad8 04bb
000001f0: 2453 013d 42f8 10bd e8e6 60bc 4a77 2abd
00000200: 4599 eebc a639 74bb 109f 363b f0bf 4a3c
00000210: 698f 933c 16a1 47bc 99a0 d4bc acba e13b
00000220: 3462 18bd 8035 2a3d 5c67 03bc e429 bb3c
00000230: 0a16 1cbc 46d3 c03c a8fa 193d 14a9 fdbb
00000240: 1bad bebc 9a04 b8bc c0d5 a13c ac00 6abc
00000250: e8cb 40bc 5f5d 1a3c 9b98 ba3b 3b92 2ebd
00000260: 59c1 24bd 97ab 173d dd5d 813c 3b97 09ba
00000270: 6cd1 2cbd cb15 9cbc d0ca b53c 9cbf be3c
00000280: 3c2b 0e3d abb8 953b 43a8 d63c 1e17 d43b
00000290: 25f6 22bd 726f 233d 8f1c 5cbc 4ac8 3c3c
000002a0: e7b3 59ba 4cd1 20bd 846e f73c 422c 9e3b
000002b0: 3cb7 963c 018a e0bb 8422 2a3c 1314 643c
000002c0: 6abd d7bc ced1 223d 5d1f 393d 2cd7 4a3a
000002d0: 4fd4 dfbc 0c99 f33c 3740 473b 4248 01bc
000002e0: 910d 27bd e097 51b7 8de6 e93c b2ae a83b
000002f0: daa6 66bc 52ca 26bd dba9 023d 1752 5b3b
00000300: 967b 39bd e313 5bba 1db6 e7bc d099 b1bc
00000310: 4550 1abd 9635 633b eaf0 3a3b 228e 0e3d
00000320: a46f 923c 63e1 343c 2240 a93c d8cb db3b
00000330: 08fa 52bb c7e4 cebc 30ae 983b b0fa e63b
00000340: a169 7a3c b8ce 013d 152c 083d db8d eebc
00000350: 73c4 2e3d f0b2 933c 363b 3f3c be10 95bc
00000360: 99f0 74bc eda0 97bc dc10 ee3a 4fe1 a63c
00000370: 2e58 3e3c 7f05 163d 91a7 783c 1bc3 253c
00000380: a9b0 2bbd c441 103d d9c8 d9bc 519a 0abd
00000390: dd8a bc3c b15e 2b3d c4fc 3f3d 50bd 20bd
000003a0: 543a 503d 1c1d 29bd e198 103b 480a d33b
000003b0: bf10 b33b abd1 213d 48e1 ea3b fe2a 7c3c
000003c0: 06cb 223d 77fb 19bc fdef 0c3d dd6c 15bd
000003d0: a699 913c 56aa a5bc 4ec7 b339 088b 20bd
000003e0: 4dd2 2bbb a3a2 14bd 3432 223b 357f 66bc
000003f0: b124 f93c d254 5fbc 4bf5 6cbc f748 0cbd
-0.0016848014 0.0029757563 -0.019507984 0.017546281 -0.01389922 -0.017324729 0.007515727 0.031903494
-0.01624988 0.02818812 -0.02175515 -0.027256988 -0.022229547 -0.02523718 -0.042932034 0.011826877
0.0027019407 -0.0015861724 -0.02573858 2.923869e-06 -0.00380655 0.022163132 0.038633585 0.03375683
0.0019432588 -0.038792033 -0.040857937 -0.0043064 0.01572319 -0.034093764 0.031912755 0.013501538
-0.00937863 -0.004502924 0.037890915 0.0027687491 -0.04086139 0.0028744456 0.05087724 0.024725605
0.030717216 0.036002077 0.040718842 -0.03790591 0.034225345 0.020983065 0.05212824 0.0008021642
0.040139653 0.01887031 0.017589426 -0.009073425 0.025213191 0.034393854 0.039785247 0.00014423465
0.0030051435 0.03846451 -0.042328447 -0.019885257 0.024011182 -0.040035177 0.0073410757 -0.00039801878
-0.00072925317 0.022175048 0.04228563 0.03305092 0.003568327 -0.027695712 0.04319512 -0.0040249988
-0.03670038 -0.02363818 0.038742844 -0.018099377 0.035644706 0.001559672 0.011582887 0.027860986
0.03784068 -0.043261673 0.034591567 0.012012768 0.0034387321 0.00019851257 -0.02160967 -0.023194812
0.03663148 0.03471235 0.006562488 -0.010429435 -0.038738932 0.015497289 0.008478059 0.00250254
0.03487684 -0.027418606 -0.044745974 -0.010223266 0.0071659917 -0.009130808 0.012919444 0.005577317
-0.0058011604 0.007968366 -0.040334553 -0.0028824431 -0.0049991338 0.034690984 -0.02322084 0.03565325
0.017530212 0.034187928 -0.03732738 -0.023424927 0.033211395 -0.003860191 -0.01814772 0.0037192188
0.04267127 0.0059097433 -0.030938597 -0.002027078 0.03157343 -0.035393007 -0.013726927 -0.04161767
-0.029125819 -0.0037265806 0.0027865805 0.012374863 0.01801272 -0.012184402 -0.025955485 0.006888708
-0.03720303 0.041554928 -0.008020248 0.022847123 -0.009526739 0.023538243 0.03759256 -0.007741103
-0.023275902 -0.022463132 0.019755244 -0.014282387 -0.011767365 0.0094216755 0.0056944615 -0.042619925
-0.040223453 0.037028875 0.015791828 -0.00052486703 -0.042191908 -0.01905336 0.022191435 0.023284726
0.0347092 0.0045691333 0.02620328 0.0064724823 -0.039785523 0.039901204 -0.013434543 0.011522362
-0.00083047006 -0.0392621 0.030204065 0.0048270533 0.01839792 -0.006852389 0.010384206 0.013920802
-0.026335437 0.039750867 0.045195926 0.00077377516 -0.027322916 0.029736064 0.0030403265 -0.007890763
-0.040784422 -1.2492732e-05 0.028552318 0.0051477784 -0.014077866 -0.04072029 0.031900268 0.0033465677
-0.045283876 -0.00083571504 -0.02828508 -0.021679789 -0.037674207 0.003466939 0.0028524944 0.034803517
0.0178755 0.0110400645 0.020660464 0.0067076497 -0.0032192487 -0.025255574 0.0046594366 0.0070489272
0.015283973 0.031691283 0.033245165 -0.029120376 0.042667817 0.01802966 0.011671832 -0.01819646
-0.014949941 -0.018509353 0.0018162983 0.020371107 0.011617703 0.036626335 0.01517667 0.010117318
-0.041916523 0.03521897 -0.02658503 -0.033838574 0.023015434 0.04183835 0.046871915 -0.039243042
0.050836876 -0.041287526 0.002206378 0.0064404346 0.005464643 0.039506596 0.007167969 0.0153911095
0.0397444 -0.009398333 0.03440856 -0.036480773 0.01777346 -0.020222824 0.00034290034 -0.03919509
-0.0026217878 -0.036287915 0.0024749162 -0.014068414 0.030413004 -0.013631063 -0.014462779 -0.034249272

fc2.bias f4 [256]
00000000: b239 cd3b b123 b7bc 65d2 bebc 86ed 313d
00000010: 04c8 a43c d283 5abc 4e9d b13c a785 33bd
00000020: 6f25 3bbb 716b 13bd 416a 71ba 9791 5bbc
00000030: b638 703a 3399 25bd a901 933c 122c 2fbd
00000040: 4f2c 223d 648b a4bb 20f3 02bd 55de 823c
00000050: 56de 2b3b e9e6 1ebd e777 313c e62a 11bd
00000060: 2228 f13c 484d 283d f51e 213b 37a2 cfbc
00000070: 27cd 67bc ca84 adbb ea80 0e3d 039f 35bb
00000080: 360c 18bc f07d 27bd 47ce 213c 62b0 063d
00000090: 1895 fabc ae86 1fbd e98f 9ebc 16ca 17bd
000000a0: 5682 6cbc 37b5 04bd 80b7 1fbd 09d9 31bd
000000b0: a206 013c 392b ca3c 575f d33c c8c6 f5bc
000000c0: d20d b4bb 9721 0ebc 6707 c4bc 8c9e 27bd
000000d0: afd4 4e3c 795b 0cbd fddf 16bd 7eca adba
000000e0: 0162 31bd 96ce 11bd 9cc2 c6bc a67a 143d
000000f0: d395 60bc 9383 0fbd fdaa 073d f493 05bd
00000100: 3224 0bbd 8428 f43c 5f79 ff3b 3d05 3c3c
00000110: ec6c 843b 0c08 713c 3b75 033d 3ceb 50bc
00000120: 5434 dfbc 0b84 b23b 3067 88bb 71f3 9ebc
00000130: 1738 28bd 4019 573c b1f1 fa3c a375 a7bc
00000140: 4a53 ddbc 2396 023d dfc5 a6bc 4036 113d
00000150: 77b4 d53c f5e5 c43c ebd0 8fbc 3f93 143d
00000160: eb15 32bd 3801 203c 2e0b d43c fee2 97bc
00000170: 5118 13bc 7069 cfbc aca3 20bd b023 a7bc
00000180: f9eb d8bc 39ed 3e3c 4a79 88bc 1227 e7bc
00000190: 82a1 c6bc 4796 adbc a5f0 333c 39f9 d8bc
000001a0: 97f2 9d3c 2e7a e0bc d9f1 e83b b0fb 13bd
000001b0: ee26 ebbc 3fdf 0bbd 4063 29bd d969 2b3b
000001c0: 3eb7 0a3c aad2 073d 3622 a93c 2b58 2ebd
000001d0: d5c5 b5bb 1e75 23bc a261 b33c feb5 7cbc
000001e0: 4196 a43c 63a7 1dbd 8ef2 213d 62e4 1a3c
000001f0: 0426 923c 3d1c 3bbc ca17 e1bc a893 be3c
00000200: d9a7 de3b 9c09 f83c 2322 e3bc 1c84 0b3c
00000210: 4403 2abc 2966 08bd 68bd 17bd f6e2 4d3b
00000220: b406 393b da6d 34bd 6566 13bd 39c8 0b3d
00000230: 149f 98bc 9a1d 43bc b63c 06bd 22cf ecbc
00000240: 1acb 7dbc 1c14 373c 2d58 b33a 52a0 4cbc
00000250: bf76 113d a7ae 29bd 0242 29bd 9773 d83a
00000260: 45f9 003d e867 e4bc c31a 0b3d 2cbb d63b
00000270: 7123 a5bc 178e 86bb a2e6 96bc 49ea cabc
00000280: a749 06bd d47c 74bc 0252 133d a3d8 fcbc
00000290: 92cb 023d da60 cebb bf8d 05bd ca92 07bc
000002a0: c78f a7bb 8f0d b3bc d675 9e3c 9729 f4bc
000002b0: 8765 113d fd2a 4cbc dda6 b13b 92b2 d8bc
000002c0: 1789 ccbc ab65 2f3d 4d7f 19bd 62a0 dabb
000002d0: 2c88 283b 5e0c 213d 92ec 9fbc 6e1f 8f3c
000002e0: bfb5 95bc e1a6 82bc 062f b73c 2f22 aebb
000002f0: fe68 0b3a b4ff fcbc 1790 c2ba bf0e 073d
00000300: f203 23bd 3d1d eebc 3f14 013d 953e 163d
00000310: 2e33 cb3c c5a0 febc 35ae 23bc 14e4 78bc
00000320: 017e 463c d5a0 353c 2134 2f3c 43c6 ce3c
00000330: e072 c63c 42a7 003b f1bb a83c 3af7 8d3b
00000340: 4e57 8d39 6d63 1cbd 2bdd 323d 6e8e c8bc
00000350: 256d fd3c 2f8f 3f3c e60c fd3c 3223 18bd
00000360: 8d20 ef3c 3a1f 00bd 5f10 c8bc a952 49bc
00000370: 39c3 81bb 99a0 0a3d 6e99 293c 7f22 f63c
00000380: 0ff2 2c3d b166 bd3c 7e9e c5bc 7521 b83c
00000390: 46b6 623c 73f8 693c ae8e d3bb a8f5 28bd
000003a0: 5508 96bc 4af1 11bc bd77 d1bc e906 293c
000003b0: 37cd a73c 2693 093d ec7e e2bc 2e5e 1ebd
000003c0: e71c 5fbc 7ce4 0a3d e7b7 12bd 7bf3 cf3c
000003d0: 725d 243d 41fa 053d f626 ea3b cab2 b53c
000003e0: 9b28 043d 230e e2ba 8cc1 0dbd c940 b9bc
000003f0: 6ec4 0dbd 19a1 acb9 7955 17bd 17ed cf3b
0.0062629813 -0.022355886 -0.023293683 0.04343941 0.020114906 -0.0133370925 0.021681454 -0.043828633
-0.0028556248 -0.035991136 -0.00092092535 -0.013401411 0.0009163724 -0.040429305 0.017945128 -0.042766638
0.039593037 -0.0050214995 -0.031970143 0.015975157 0.0026225052 -0.03879443 0.01083181 -0.0354413
0.029438082 0.041089326 0.0024585102 -0.025345905 -0.014148033 -0.0052953707 0.03479091 -0.0027713187
-0.009280255 -0.040891588 0.0098758405 0.032883056 -0.030588672 -0.0389468 -0.019355731 -0.03705796
-0.014435371 -0.032399382 -0.03899336 -0.04341987 0.007875117 0.024678813 0.025802298 -0.030002013
-0.0054948116 -0.008675001 -0.023929311 -0.040922686 0.01262395 -0.034266923 -0.036834706 -0.00132592
-0.043306354 -0.035597406 -0.024262719 0.03624978 -0.013707596 -0.03503759 0.03312205 -0.032611802
-0.033970065 0.029804476 0.007796451 0.011475858 0.004041305 0.014711391 0.03209422 -0.012751397
-0.027246632 0.0054478697 -0.0041626915 -0.019403191 -0.041069116 0.013128579 0.030632826 -0.020441836
-0.027017254 0.031881463 -0.020358024 0.035452127 0.026087029 0.024035433 -0.017555675 0.036273237
-0.043477934 0.009765916 0.025884237 -0.018540855 -0.008977965 -0.025318831 -0.03921859 -0.02040276
-0.026479708 0.011653238 -0.016659398 -0.028216872 -0.024246935 -0.021189822 0.010982667 -0.026486026
0.019280715 -0.02740201 0.0071089086 -0.0361287 -0.028705087 -0.03414845 -0.041354418 0.002615562
0.00846654 0.03315989 0.020646196 -0.042564552 -0.005547265 -0.009976653 0.02189714 -0.01542425
0.020091178 -0.03848971 0.03953796 0.009453865 0.017840393 -0.011420307 -0.027477164 0.023263767
0.0067949113 0.03027802 -0.027726239 0.008515384 -0.010376755 -0.033300553 -0.037045866 0.0031415797
0.0028232755 -0.044050075 -0.035986323 0.034126494 -0.018630542 -0.011908913 -0.032772742 -0.028907362
-0.015490318 0.011174228 0.0013682895 -0.012489395 0.035513636 -0.041426327 -0.041322716 0.0016513941
0.031487722 -0.027881578 0.03396107 0.0065530743 -0.020158501 -0.004106294 -0.018420521 -0.024769919
-0.032785084 -0.0149223395 0.03596688 -0.03086502 0.03193242 -0.0062981667 -0.032605883 -0.008274743
-0.005113575 -0.021857051 0.019343298 -0.029804988 0.035497215 -0.012461421 0.005421503 -0.026452336
-0.024967713 0.042821568 -0.03747492 -0.006671951 0.002571593 0.039318435 -0.019521985 0.017471042
-0.01827514 -0.015948715 0.02236129 -0.0053141336 0.0005318074 -0.030883648 -0.0014843968 0.032973047
-0.039798684 -0.029066676 0.03151345 0.036680777 0.024804678 -0.03108252 -0.009990265 -0.015191097
0.012115003 0.011085709 0.010693581 0.025241023 0.024224699 0.0019630943 0.02059743 0.00433245
0.00026958663 -0.038180757 0.043667953 -0.024481978 0.030935833 0.0116918525 0.03088994 -0.03714294
0.029190326 -0.03127978 -0.024421869 -0.012287774 -0.00396004 0.033844564 0.010351522 0.030045746
0.042223033 0.023120256 -0.024123427 0.022476891 0.013837403 0.014280426 -0.0064562177 -0.0412499
-0.01831452 -0.008907625 -0.025569791 0.010316589 0.020483596 0.033587597 -0.027648412 -0.038664035
-0.013617731 0.033909306 -0.035819914 0.025384655 0.04012818 0.032709364 0.007145758 0.02217998
0.032265287 -0.0017246645 -0.03460841 -0.0226139 -0.034611158 -0.00032926424 -0.036946747 0.006345402
